************** number of hidden layers 1
2021-05-13 07:04:11.485554: I tensorflow/compiler/jit/xla_gpu_device.cc:99] Not creating XLA devices, tf_xla_enable_xla_devices not set
Model: "sequential"
_________________________________________________________________
Layer (type)                 Output Shape              Param #
=================================================================
conv2d (Conv2D)              (None, 28, 28, 32)        896
_________________________________________________________________
max_pooling2d (MaxPooling2D) (None, 9, 9, 32)          0
_________________________________________________________________
flatten (Flatten)            (None, 2592)              0
_________________________________________________________________
dense (Dense)                (None, 128)               331904
_________________________________________________________________
dropout (Dropout)            (None, 128)               0
_________________________________________________________________
dense_1 (Dense)              (None, 43)                5547
=================================================================
Total params: 338,347
Trainable params: 338,347
Non-trainable params: 0
_________________________________________________________________
2021-05-13 07:04:11.569882: I tensorflow/compiler/mlir/mlir_graph_optimization_pass.cc:116] None of the MLIR optimization passes are enabled (registered 2)
Epoch 1/10
500/500 [==============================] - 4s 8ms/step - loss: 10.5750 - accuracy: 0.0465
…
500/500 [==============================] - 4s 8ms/step - loss: 3.5007 - accuracy: 0.0532
Epoch 10/10
500/500 [==============================] - 4s 8ms/step - loss: 3.5013 - accuracy: 0.0493
333/333 - 1s - loss: 3.4991 - accuracy: 0.0573






************** number of hidden layers 2
2021-05-13 06:55:23.758117: I tensorflow/compiler/jit/xla_gpu_device.cc:99] Not creating XLA devices, tf_xla_enable_xla_devices not set
Model: "sequential"
_________________________________________________________________
Layer (type)                 Output Shape              Param #
=================================================================
conv2d (Conv2D)              (None, 28, 28, 32)        896
_________________________________________________________________
max_pooling2d (MaxPooling2D) (None, 9, 9, 32)          0
_________________________________________________________________
flatten (Flatten)            (None, 2592)              0
_________________________________________________________________
dense (Dense)                (None, 128)               331904
_________________________________________________________________
dropout (Dropout)            (None, 128)               0
_________________________________________________________________
dense_1 (Dense)              (None, 128)               16512
_________________________________________________________________
dropout_1 (Dropout)          (None, 128)               0
_________________________________________________________________
dense_2 (Dense)              (None, 43)                5547
=================================================================
Total params: 354,859
Trainable params: 354,859
Non-trainable params: 0
_________________________________________________________________
2021-05-13 06:55:23.843161: I tensorflow/compiler/mlir/mlir_graph_optimization_pass.cc:116] None of the MLIR optimization passes are enabled (registered 2)
Epoch 1/10
500/500 [==============================] - 6s 12ms/step - loss: 9.2087 - accuracy: 0.0460
…
500/500 [==============================] - 5s 9ms/step - loss: 3.5003 - accuracy: 0.0549
Epoch 10/10
500/500 [==============================] - 4s 8ms/step - loss: 3.4997 - accuracy: 0.0542
333/333 - 1s - loss: 3.4993 - accuracy: 0.0568





************** number of hidden layers 3
2021-05-13 06:58:54.333532: I tensorflow/compiler/jit/xla_gpu_device.cc:99] Not creating XLA devices, tf_xla_enable_xla_devices not set
Model: "sequential"
_________________________________________________________________
Layer (type)                 Output Shape              Param #
=================================================================
conv2d (Conv2D)              (None, 28, 28, 32)        896
_________________________________________________________________
max_pooling2d (MaxPooling2D) (None, 9, 9, 32)          0
_________________________________________________________________
flatten (Flatten)            (None, 2592)              0
_________________________________________________________________
dense (Dense)                (None, 128)               331904
_________________________________________________________________
dropout (Dropout)            (None, 128)               0
_________________________________________________________________
dense_1 (Dense)              (None, 128)               16512
_________________________________________________________________
dropout_1 (Dropout)          (None, 128)               0
_________________________________________________________________
dense_2 (Dense)              (None, 128)               16512
_________________________________________________________________
dropout_2 (Dropout)          (None, 128)               0
_________________________________________________________________
dense_3 (Dense)              (None, 43)                5547
=================================================================
Total params: 371,371
Trainable params: 371,371
Non-trainable params: 0
_________________________________________________________________
2021-05-13 06:58:55.079913: I tensorflow/compiler/mlir/mlir_graph_optimization_pass.cc:116] None of the MLIR optimization passes are enabled (registered 2)
Epoch 1/10
500/500 [==============================] - 8s 8ms/step - loss: 7.7406 - accuracy: 0.0465
…
