************** dropout 30%
2021-05-13 07:36:22.099797: I tensorflow/compiler/jit/xla_gpu_device.cc:99] Not creating XLA devices, tf_xla_enable_xla_devices not set
Model: "sequential"
_________________________________________________________________
Layer (type)                 Output Shape              Param #
=================================================================
conv2d (Conv2D)              (None, 28, 28, 32)        896
_________________________________________________________________
max_pooling2d (MaxPooling2D) (None, 9, 9, 32)          0
_________________________________________________________________
flatten (Flatten)            (None, 2592)              0
_________________________________________________________________
dense (Dense)                (None, 128)               331904
_________________________________________________________________
dropout (Dropout)            (None, 128)               0
_________________________________________________________________
dense_1 (Dense)              (None, 43)                5547
=================================================================
Total params: 338,347
Trainable params: 338,347
Non-trainable params: 0
_________________________________________________________________
2021-05-13 07:36:22.171968: I tensorflow/compiler/mlir/mlir_graph_optimization_pass.cc:116] None of the MLIR optimization passes are enabled (registered 2)
Epoch 1/10
500/500 [==============================] - 4s 7ms/step - loss: 8.8622 - accuracy: 0.0503
…
