*********** 1 conv2d and pooling layer
2021-05-13 05:56:06.716021: I tensorflow/compiler/jit/xla_gpu_device.cc:99] Not creating XLA devices, tf_xla_enable_xla_devices not set
Model: "sequential"
_________________________________________________________________
Layer (type)                 Output Shape              Param #
=================================================================
conv2d (Conv2D)              (None, 28, 28, 32)        896
_________________________________________________________________
max_pooling2d (MaxPooling2D) (None, 14, 14, 32)        0
_________________________________________________________________
flatten (Flatten)            (None, 6272)              0
_________________________________________________________________
dense (Dense)                (None, 128)               802944
_________________________________________________________________
dropout (Dropout)            (None, 128)               0
_________________________________________________________________
dense_1 (Dense)              (None, 43)                5547
=================================================================
Total params: 809,387
Trainable params: 809,387
Non-trainable params: 0
_________________________________________________________________
2021-05-13 05:56:06.844798: I tensorflow/compiler/mlir/mlir_graph_optimization_pass.cc:116] None of the MLIR optimization passes are enabled (registered 2)
Epoch 1/10
500/500 [==============================] - 6s 10ms/step - loss: 8.8198 - accuracy: 0.0502
…
500/500 [==============================] - 8s 16ms/step - loss: 3.4981 - accuracy: 0.0572
Epoch 10/10
500/500 [==============================] - 8s 16ms/step - loss: 3.4985 - accuracy: 0.0569
333/333 - 2s - loss: 3.4990 - accuracy: 0.0548





*********** 2 conv2d and pooling layer
2021-05-13 05:59:16.463789: I tensorflow/compiler/jit/xla_gpu_device.cc:99] Not creating XLA devices, tf_xla_enable_xla_devices not set
Model: "sequential"
_________________________________________________________________
Layer (type)                 Output Shape              Param #
=================================================================
conv2d (Conv2D)              (None, 28, 28, 32)        896
_________________________________________________________________
max_pooling2d (MaxPooling2D) (None, 14, 14, 32)        0
_________________________________________________________________
conv2d_1 (Conv2D)            (None, 12, 12, 32)        9248
_________________________________________________________________
max_pooling2d_1 (MaxPooling2 (None, 6, 6, 32)          0
_________________________________________________________________
flatten (Flatten)            (None, 1152)              0
_________________________________________________________________
dense (Dense)                (None, 128)               147584
_________________________________________________________________
dropout (Dropout)            (None, 128)               0
_________________________________________________________________
dense_1 (Dense)              (None, 43)                5547
=================================================================
Total params: 163,275
Trainable params: 163,275
Non-trainable params: 0
_________________________________________________________________
2021-05-13 05:59:16.555835: I tensorflow/compiler/mlir/mlir_graph_optimization_pass.cc:116] None of the MLIR optimization passes are enabled (registered 2)
Epoch 1/10
500/500 [==============================] - 7s 13ms/step - loss: 6.4218 - accuracy: 0.1957
…
500/500 [==============================] - 22s 45ms/step - loss: 0.3883 - accuracy: 0.8831
Epoch 10/10
500/500 [==============================] - 30s 60ms/step - loss: 0.3482 - accuracy: 0.8953
333/333 - 2s - loss: 0.3248 - accuracy: 0.9108





*********** 3 conv2d and pooling layer
2021-05-13 06:02:32.783419: I tensorflow/compiler/jit/xla_gpu_device.cc:99] Not creating XLA devices, tf_xla_enable_xla_devices not set
Model: "sequential"
_________________________________________________________________
Layer (type)                 Output Shape              Param #
=================================================================
conv2d (Conv2D)              (None, 28, 28, 32)        896
_________________________________________________________________
max_pooling2d (MaxPooling2D) (None, 14, 14, 32)        0
_________________________________________________________________
conv2d_1 (Conv2D)            (None, 12, 12, 32)        9248
_________________________________________________________________
max_pooling2d_1 (MaxPooling2 (None, 6, 6, 32)          0
_________________________________________________________________
conv2d_2 (Conv2D)            (None, 4, 4, 32)          9248
_________________________________________________________________
max_pooling2d_2 (MaxPooling2 (None, 2, 2, 32)          0
_________________________________________________________________
flatten (Flatten)            (None, 128)               0
_________________________________________________________________
dense (Dense)                (None, 128)               16512
_________________________________________________________________
dropout (Dropout)            (None, 128)               0
_________________________________________________________________
dense_1 (Dense)              (None, 43)                5547
=================================================================
Total params: 41,451
Trainable params: 41,451
Non-trainable params: 0
_________________________________________________________________
2021-05-13 06:02:32.879385: I tensorflow/compiler/mlir/mlir_graph_optimization_pass.cc:116] None of the MLIR optimization passes are enabled (registered 2)
Epoch 1/10
500/500 [==============================] - 7s 14ms/step - loss: 4.9767 - accuracy: 0.0498
…
